----------------------------------------------------------------
        Layer (type)               Output Shape         Param #
================================================================
init conv
            Conv2d-1           [-1, 16, 32, 32]             432
            Conv2d-2           [-1, 16, 32, 32]             432


       BatchNorm2d-3           [-1, 16, 32, 32]              32
       BatchNorm2d-4           [-1, 16, 32, 32]              32
              ReLU-5           [-1, 16, 32, 32]               0
              ReLU-6           [-1, 16, 32, 32]               0
  LearnedGroupConv-7           [-1, 32, 32, 32]               0
  LearnedGroupConv-8           [-1, 32, 32, 32]               0
       BatchNorm2d-9           [-1, 32, 32, 32]              64
      BatchNorm2d-10           [-1, 32, 32, 32]              64
             ReLU-11           [-1, 32, 32, 32]               0
             ReLU-12           [-1, 32, 32, 32]               0
           Conv2d-13            [-1, 8, 32, 32]             576
           Conv2d-14            [-1, 8, 32, 32]             576
@1
      _DenseLayer-15           [-1, 24, 32, 32]               0
      _DenseLayer-16           [-1, 24, 32, 32]               0
      BatchNorm2d-17           [-1, 24, 32, 32]              48
      BatchNorm2d-18           [-1, 24, 32, 32]              48
             ReLU-19           [-1, 24, 32, 32]               0
             ReLU-20           [-1, 24, 32, 32]               0
 LearnedGroupConv-21           [-1, 32, 32, 32]               0
 LearnedGroupConv-22           [-1, 32, 32, 32]               0
      BatchNorm2d-23           [-1, 32, 32, 32]              64
      BatchNorm2d-24           [-1, 32, 32, 32]              64
             ReLU-25           [-1, 32, 32, 32]               0
             ReLU-26           [-1, 32, 32, 32]               0
           Conv2d-27            [-1, 8, 32, 32]             576
           Conv2d-28            [-1, 8, 32, 32]             576
@2
      _DenseLayer-29           [-1, 32, 32, 32]               0
      _DenseLayer-30           [-1, 32, 32, 32]               0
      BatchNorm2d-31           [-1, 32, 32, 32]              64
      BatchNorm2d-32           [-1, 32, 32, 32]              64
             ReLU-33           [-1, 32, 32, 32]               0
             ReLU-34           [-1, 32, 32, 32]               0
 LearnedGroupConv-35           [-1, 32, 32, 32]               0
 LearnedGroupConv-36           [-1, 32, 32, 32]               0
      BatchNorm2d-37           [-1, 32, 32, 32]              64
      BatchNorm2d-38           [-1, 32, 32, 32]              64
             ReLU-39           [-1, 32, 32, 32]               0
             ReLU-40           [-1, 32, 32, 32]               0
           Conv2d-41            [-1, 8, 32, 32]             576
           Conv2d-42            [-1, 8, 32, 32]             576
@3
      _DenseLayer-43           [-1, 40, 32, 32]               0
      _DenseLayer-44           [-1, 40, 32, 32]               0
      BatchNorm2d-45           [-1, 40, 32, 32]              80
      BatchNorm2d-46           [-1, 40, 32, 32]              80
             ReLU-47           [-1, 40, 32, 32]               0
             ReLU-48           [-1, 40, 32, 32]               0
 LearnedGroupConv-49           [-1, 32, 32, 32]               0
 LearnedGroupConv-50           [-1, 32, 32, 32]               0
      BatchNorm2d-51           [-1, 32, 32, 32]              64
      BatchNorm2d-52           [-1, 32, 32, 32]              64
             ReLU-53           [-1, 32, 32, 32]               0
             ReLU-54           [-1, 32, 32, 32]               0
           Conv2d-55            [-1, 8, 32, 32]             576
           Conv2d-56            [-1, 8, 32, 32]             576
@4
      _DenseLayer-57           [-1, 48, 32, 32]               0
      _DenseLayer-58           [-1, 48, 32, 32]               0
      BatchNorm2d-59           [-1, 48, 32, 32]              96
      BatchNorm2d-60           [-1, 48, 32, 32]              96
             ReLU-61           [-1, 48, 32, 32]               0
             ReLU-62           [-1, 48, 32, 32]               0
 LearnedGroupConv-63           [-1, 32, 32, 32]               0
 LearnedGroupConv-64           [-1, 32, 32, 32]               0
      BatchNorm2d-65           [-1, 32, 32, 32]              64
      BatchNorm2d-66           [-1, 32, 32, 32]              64
             ReLU-67           [-1, 32, 32, 32]               0
             ReLU-68           [-1, 32, 32, 32]               0
           Conv2d-69            [-1, 8, 32, 32]             576
           Conv2d-70            [-1, 8, 32, 32]             576
@5
      _DenseLayer-71           [-1, 56, 32, 32]               0
      _DenseLayer-72           [-1, 56, 32, 32]               0
      BatchNorm2d-73           [-1, 56, 32, 32]             112
      BatchNorm2d-74           [-1, 56, 32, 32]             112
             ReLU-75           [-1, 56, 32, 32]               0
             ReLU-76           [-1, 56, 32, 32]               0
 LearnedGroupConv-77           [-1, 32, 32, 32]               0
 LearnedGroupConv-78           [-1, 32, 32, 32]               0
      BatchNorm2d-79           [-1, 32, 32, 32]              64
      BatchNorm2d-80           [-1, 32, 32, 32]              64
             ReLU-81           [-1, 32, 32, 32]               0
             ReLU-82           [-1, 32, 32, 32]               0
           Conv2d-83            [-1, 8, 32, 32]             576
           Conv2d-84            [-1, 8, 32, 32]             576
@6
      _DenseLayer-85           [-1, 64, 32, 32]               0
      _DenseLayer-86           [-1, 64, 32, 32]               0
      BatchNorm2d-87           [-1, 64, 32, 32]             128
      BatchNorm2d-88           [-1, 64, 32, 32]             128
             ReLU-89           [-1, 64, 32, 32]               0
             ReLU-90           [-1, 64, 32, 32]               0
 LearnedGroupConv-91           [-1, 32, 32, 32]               0
 LearnedGroupConv-92           [-1, 32, 32, 32]               0
      BatchNorm2d-93           [-1, 32, 32, 32]              64
      BatchNorm2d-94           [-1, 32, 32, 32]              64
             ReLU-95           [-1, 32, 32, 32]               0
             ReLU-96           [-1, 32, 32, 32]               0
           Conv2d-97            [-1, 8, 32, 32]             576
           Conv2d-98            [-1, 8, 32, 32]             576
@7
      _DenseLayer-99           [-1, 72, 32, 32]               0
     _DenseLayer-100           [-1, 72, 32, 32]               0
     BatchNorm2d-101           [-1, 72, 32, 32]             144
     BatchNorm2d-102           [-1, 72, 32, 32]             144
            ReLU-103           [-1, 72, 32, 32]               0
            ReLU-104           [-1, 72, 32, 32]               0
LearnedGroupConv-105           [-1, 32, 32, 32]               0
LearnedGroupConv-106           [-1, 32, 32, 32]               0
     BatchNorm2d-107           [-1, 32, 32, 32]              64
     BatchNorm2d-108           [-1, 32, 32, 32]              64
            ReLU-109           [-1, 32, 32, 32]               0
            ReLU-110           [-1, 32, 32, 32]               0
          Conv2d-111            [-1, 8, 32, 32]             576
          Conv2d-112            [-1, 8, 32, 32]             576
@8
     _DenseLayer-113           [-1, 80, 32, 32]               0
     _DenseLayer-114           [-1, 80, 32, 32]               0
     BatchNorm2d-115           [-1, 80, 32, 32]             160
     BatchNorm2d-116           [-1, 80, 32, 32]             160
            ReLU-117           [-1, 80, 32, 32]               0
            ReLU-118           [-1, 80, 32, 32]               0
LearnedGroupConv-119           [-1, 32, 32, 32]               0
LearnedGroupConv-120           [-1, 32, 32, 32]               0
     BatchNorm2d-121           [-1, 32, 32, 32]              64
     BatchNorm2d-122           [-1, 32, 32, 32]              64
            ReLU-123           [-1, 32, 32, 32]               0
            ReLU-124           [-1, 32, 32, 32]               0
          Conv2d-125            [-1, 8, 32, 32]             576
          Conv2d-126            [-1, 8, 32, 32]             576
@9
     _DenseLayer-127           [-1, 88, 32, 32]               0
     _DenseLayer-128           [-1, 88, 32, 32]               0
     BatchNorm2d-129           [-1, 88, 32, 32]             176
     BatchNorm2d-130           [-1, 88, 32, 32]             176
            ReLU-131           [-1, 88, 32, 32]               0
            ReLU-132           [-1, 88, 32, 32]               0
LearnedGroupConv-133           [-1, 32, 32, 32]               0
LearnedGroupConv-134           [-1, 32, 32, 32]               0
     BatchNorm2d-135           [-1, 32, 32, 32]              64
     BatchNorm2d-136           [-1, 32, 32, 32]              64
            ReLU-137           [-1, 32, 32, 32]               0
            ReLU-138           [-1, 32, 32, 32]               0
          Conv2d-139            [-1, 8, 32, 32]             576
          Conv2d-140            [-1, 8, 32, 32]             576
@10
     _DenseLayer-141           [-1, 96, 32, 32]               0
     _DenseLayer-142           [-1, 96, 32, 32]               0
     BatchNorm2d-143           [-1, 96, 32, 32]             192
     BatchNorm2d-144           [-1, 96, 32, 32]             192
            ReLU-145           [-1, 96, 32, 32]               0
            ReLU-146           [-1, 96, 32, 32]               0
LearnedGroupConv-147           [-1, 32, 32, 32]               0
LearnedGroupConv-148           [-1, 32, 32, 32]               0
     BatchNorm2d-149           [-1, 32, 32, 32]              64
     BatchNorm2d-150           [-1, 32, 32, 32]              64
            ReLU-151           [-1, 32, 32, 32]               0
            ReLU-152           [-1, 32, 32, 32]               0
          Conv2d-153            [-1, 8, 32, 32]             576
          Conv2d-154            [-1, 8, 32, 32]             576
@11
     _DenseLayer-155          [-1, 104, 32, 32]               0
     _DenseLayer-156          [-1, 104, 32, 32]               0
     BatchNorm2d-157          [-1, 104, 32, 32]             208
     BatchNorm2d-158          [-1, 104, 32, 32]             208
            ReLU-159          [-1, 104, 32, 32]               0
            ReLU-160          [-1, 104, 32, 32]               0
LearnedGroupConv-161           [-1, 32, 32, 32]               0
LearnedGroupConv-162           [-1, 32, 32, 32]               0
     BatchNorm2d-163           [-1, 32, 32, 32]              64
     BatchNorm2d-164           [-1, 32, 32, 32]              64
            ReLU-165           [-1, 32, 32, 32]               0
            ReLU-166           [-1, 32, 32, 32]               0
          Conv2d-167            [-1, 8, 32, 32]             576
          Conv2d-168            [-1, 8, 32, 32]             576
@12
     _DenseLayer-169          [-1, 112, 32, 32]               0
     _DenseLayer-170          [-1, 112, 32, 32]               0
     BatchNorm2d-171          [-1, 112, 32, 32]             224
     BatchNorm2d-172          [-1, 112, 32, 32]             224
            ReLU-173          [-1, 112, 32, 32]               0
            ReLU-174          [-1, 112, 32, 32]               0
LearnedGroupConv-175           [-1, 32, 32, 32]               0
LearnedGroupConv-176           [-1, 32, 32, 32]               0
     BatchNorm2d-177           [-1, 32, 32, 32]              64
     BatchNorm2d-178           [-1, 32, 32, 32]              64
            ReLU-179           [-1, 32, 32, 32]               0
            ReLU-180           [-1, 32, 32, 32]               0
          Conv2d-181            [-1, 8, 32, 32]             576
          Conv2d-182            [-1, 8, 32, 32]             576
@13
     _DenseLayer-183          [-1, 120, 32, 32]               0
     _DenseLayer-184          [-1, 120, 32, 32]               0
     BatchNorm2d-185          [-1, 120, 32, 32]             240
     BatchNorm2d-186          [-1, 120, 32, 32]             240
            ReLU-187          [-1, 120, 32, 32]               0
            ReLU-188          [-1, 120, 32, 32]               0
LearnedGroupConv-189           [-1, 32, 32, 32]               0
LearnedGroupConv-190           [-1, 32, 32, 32]               0
     BatchNorm2d-191           [-1, 32, 32, 32]              64
     BatchNorm2d-192           [-1, 32, 32, 32]              64
            ReLU-193           [-1, 32, 32, 32]               0
            ReLU-194           [-1, 32, 32, 32]               0
          Conv2d-195            [-1, 8, 32, 32]             576
          Conv2d-196            [-1, 8, 32, 32]             576
@14
     _DenseLayer-197          [-1, 128, 32, 32]               0
       AvgPool2d-198          [-1, 128, 16, 16]               0
     _Transition-199          [-1, 128, 16, 16]               0
     _DenseLayer-200          [-1, 128, 32, 32]               0
       AvgPool2d-201          [-1, 128, 16, 16]               0
     _Transition-202          [-1, 128, 16, 16]               0
@transition


---------------------------------------------------------------------
     BatchNorm2d-203          [-1, 128, 16, 16]             256
     BatchNorm2d-204          [-1, 128, 16, 16]             256
            ReLU-205          [-1, 128, 16, 16]               0
            ReLU-206          [-1, 128, 16, 16]               0
LearnedGroupConv-207           [-1, 64, 16, 16]               0
LearnedGroupConv-208           [-1, 64, 16, 16]               0
     BatchNorm2d-209           [-1, 64, 16, 16]             128
     BatchNorm2d-210           [-1, 64, 16, 16]             128
            ReLU-211           [-1, 64, 16, 16]               0
            ReLU-212           [-1, 64, 16, 16]               0
          Conv2d-213           [-1, 16, 16, 16]           2,304
          Conv2d-214           [-1, 16, 16, 16]           2,304
@1
     _DenseLayer-215          [-1, 144, 16, 16]               0
     _DenseLayer-216          [-1, 144, 16, 16]               0
     BatchNorm2d-217          [-1, 144, 16, 16]             288
     BatchNorm2d-218          [-1, 144, 16, 16]             288
            ReLU-219          [-1, 144, 16, 16]               0
            ReLU-220          [-1, 144, 16, 16]               0
LearnedGroupConv-221           [-1, 64, 16, 16]               0
LearnedGroupConv-222           [-1, 64, 16, 16]               0
     BatchNorm2d-223           [-1, 64, 16, 16]             128
     BatchNorm2d-224           [-1, 64, 16, 16]             128
            ReLU-225           [-1, 64, 16, 16]               0
            ReLU-226           [-1, 64, 16, 16]               0
          Conv2d-227           [-1, 16, 16, 16]           2,304
          Conv2d-228           [-1, 16, 16, 16]           2,304
@2
     _DenseLayer-229          [-1, 160, 16, 16]               0
     _DenseLayer-230          [-1, 160, 16, 16]               0
     BatchNorm2d-231          [-1, 160, 16, 16]             320
     BatchNorm2d-232          [-1, 160, 16, 16]             320
            ReLU-233          [-1, 160, 16, 16]               0
            ReLU-234          [-1, 160, 16, 16]               0
LearnedGroupConv-235           [-1, 64, 16, 16]               0
LearnedGroupConv-236           [-1, 64, 16, 16]               0
     BatchNorm2d-237           [-1, 64, 16, 16]             128
     BatchNorm2d-238           [-1, 64, 16, 16]             128
            ReLU-239           [-1, 64, 16, 16]               0
            ReLU-240           [-1, 64, 16, 16]               0
          Conv2d-241           [-1, 16, 16, 16]           2,304
          Conv2d-242           [-1, 16, 16, 16]           2,304
@3
     _DenseLayer-243          [-1, 176, 16, 16]               0
     _DenseLayer-244          [-1, 176, 16, 16]               0
     BatchNorm2d-245          [-1, 176, 16, 16]             352
     BatchNorm2d-246          [-1, 176, 16, 16]             352
            ReLU-247          [-1, 176, 16, 16]               0
            ReLU-248          [-1, 176, 16, 16]               0
LearnedGroupConv-249           [-1, 64, 16, 16]               0
LearnedGroupConv-250           [-1, 64, 16, 16]               0
     BatchNorm2d-251           [-1, 64, 16, 16]             128
            ReLU-252           [-1, 64, 16, 16]               0
     BatchNorm2d-253           [-1, 64, 16, 16]             128
          Conv2d-254           [-1, 16, 16, 16]           2,304
            ReLU-255           [-1, 64, 16, 16]               0
     _DenseLayer-256          [-1, 192, 16, 16]               0
          Conv2d-257           [-1, 16, 16, 16]           2,304
     _DenseLayer-258          [-1, 192, 16, 16]               0
@4     
     BatchNorm2d-259          [-1, 192, 16, 16]             384
     BatchNorm2d-260          [-1, 192, 16, 16]             384
            ReLU-261          [-1, 192, 16, 16]               0
            ReLU-262          [-1, 192, 16, 16]               0
LearnedGroupConv-263           [-1, 64, 16, 16]               0
LearnedGroupConv-264           [-1, 64, 16, 16]               0
     BatchNorm2d-265           [-1, 64, 16, 16]             128
     BatchNorm2d-266           [-1, 64, 16, 16]             128
            ReLU-267           [-1, 64, 16, 16]               0
            ReLU-268           [-1, 64, 16, 16]               0
          Conv2d-269           [-1, 16, 16, 16]           2,304
          Conv2d-270           [-1, 16, 16, 16]           2,304
@5
     _DenseLayer-271          [-1, 208, 16, 16]               0
     _DenseLayer-272          [-1, 208, 16, 16]               0
     BatchNorm2d-273          [-1, 208, 16, 16]             416
     BatchNorm2d-274          [-1, 208, 16, 16]             416
            ReLU-275          [-1, 208, 16, 16]               0
            ReLU-276          [-1, 208, 16, 16]               0
LearnedGroupConv-277           [-1, 64, 16, 16]               0
LearnedGroupConv-278           [-1, 64, 16, 16]               0
     BatchNorm2d-279           [-1, 64, 16, 16]             128
     BatchNorm2d-280           [-1, 64, 16, 16]             128
            ReLU-281           [-1, 64, 16, 16]               0
            ReLU-282           [-1, 64, 16, 16]               0
          Conv2d-283           [-1, 16, 16, 16]           2,304
          Conv2d-284           [-1, 16, 16, 16]           2,304
@6
     _DenseLayer-285          [-1, 224, 16, 16]               0
     _DenseLayer-286          [-1, 224, 16, 16]               0
     BatchNorm2d-287          [-1, 224, 16, 16]             448
     BatchNorm2d-288          [-1, 224, 16, 16]             448
            ReLU-289          [-1, 224, 16, 16]               0
            ReLU-290          [-1, 224, 16, 16]               0
LearnedGroupConv-291           [-1, 64, 16, 16]               0
LearnedGroupConv-292           [-1, 64, 16, 16]               0
     BatchNorm2d-293           [-1, 64, 16, 16]             128
     BatchNorm2d-294           [-1, 64, 16, 16]             128
            ReLU-295           [-1, 64, 16, 16]               0
            ReLU-296           [-1, 64, 16, 16]               0
          Conv2d-297           [-1, 16, 16, 16]           2,304
          Conv2d-298           [-1, 16, 16, 16]           2,304
@7
     _DenseLayer-299          [-1, 240, 16, 16]               0
     _DenseLayer-300          [-1, 240, 16, 16]               0
     BatchNorm2d-301          [-1, 240, 16, 16]             480
     BatchNorm2d-302          [-1, 240, 16, 16]             480
            ReLU-303          [-1, 240, 16, 16]               0
            ReLU-304          [-1, 240, 16, 16]               0
LearnedGroupConv-305           [-1, 64, 16, 16]               0
LearnedGroupConv-306           [-1, 64, 16, 16]               0
     BatchNorm2d-307           [-1, 64, 16, 16]             128
     BatchNorm2d-308           [-1, 64, 16, 16]             128
            ReLU-309           [-1, 64, 16, 16]               0
            ReLU-310           [-1, 64, 16, 16]               0
          Conv2d-311           [-1, 16, 16, 16]           2,304
          Conv2d-312           [-1, 16, 16, 16]           2,304
@8
     _DenseLayer-313          [-1, 256, 16, 16]               0
     _DenseLayer-314          [-1, 256, 16, 16]               0
     BatchNorm2d-315          [-1, 256, 16, 16]             512
     BatchNorm2d-316          [-1, 256, 16, 16]             512
            ReLU-317          [-1, 256, 16, 16]               0
            ReLU-318          [-1, 256, 16, 16]               0
LearnedGroupConv-319           [-1, 64, 16, 16]               0
LearnedGroupConv-320           [-1, 64, 16, 16]               0
     BatchNorm2d-321           [-1, 64, 16, 16]             128
     BatchNorm2d-322           [-1, 64, 16, 16]             128
            ReLU-323           [-1, 64, 16, 16]               0
            ReLU-324           [-1, 64, 16, 16]               0
          Conv2d-325           [-1, 16, 16, 16]           2,304
          Conv2d-326           [-1, 16, 16, 16]           2,304
@9
     _DenseLayer-327          [-1, 272, 16, 16]               0
     _DenseLayer-328          [-1, 272, 16, 16]               0
     BatchNorm2d-329          [-1, 272, 16, 16]             544
     BatchNorm2d-330          [-1, 272, 16, 16]             544
            ReLU-331          [-1, 272, 16, 16]               0
            ReLU-332          [-1, 272, 16, 16]               0
LearnedGroupConv-333           [-1, 64, 16, 16]               0
LearnedGroupConv-334           [-1, 64, 16, 16]               0
     BatchNorm2d-335           [-1, 64, 16, 16]             128
     BatchNorm2d-336           [-1, 64, 16, 16]             128
            ReLU-337           [-1, 64, 16, 16]               0
            ReLU-338           [-1, 64, 16, 16]               0
          Conv2d-339           [-1, 16, 16, 16]           2,304
          Conv2d-340           [-1, 16, 16, 16]           2,304
@10
     _DenseLayer-341          [-1, 288, 16, 16]               0
     _DenseLayer-342          [-1, 288, 16, 16]               0
     BatchNorm2d-343          [-1, 288, 16, 16]             576
     BatchNorm2d-344          [-1, 288, 16, 16]             576
            ReLU-345          [-1, 288, 16, 16]               0
            ReLU-346          [-1, 288, 16, 16]               0
LearnedGroupConv-347           [-1, 64, 16, 16]               0
LearnedGroupConv-348           [-1, 64, 16, 16]               0
     BatchNorm2d-349           [-1, 64, 16, 16]             128
     BatchNorm2d-350           [-1, 64, 16, 16]             128
            ReLU-351           [-1, 64, 16, 16]               0
            ReLU-352           [-1, 64, 16, 16]               0
          Conv2d-353           [-1, 16, 16, 16]           2,304
          Conv2d-354           [-1, 16, 16, 16]           2,304
@11
     _DenseLayer-355          [-1, 304, 16, 16]               0
     _DenseLayer-356          [-1, 304, 16, 16]               0
     BatchNorm2d-357          [-1, 304, 16, 16]             608
     BatchNorm2d-358          [-1, 304, 16, 16]             608
            ReLU-359          [-1, 304, 16, 16]               0
            ReLU-360          [-1, 304, 16, 16]               0
LearnedGroupConv-361           [-1, 64, 16, 16]               0
LearnedGroupConv-362           [-1, 64, 16, 16]               0
     BatchNorm2d-363           [-1, 64, 16, 16]             128
     BatchNorm2d-364           [-1, 64, 16, 16]             128
            ReLU-365           [-1, 64, 16, 16]               0
            ReLU-366           [-1, 64, 16, 16]               0
          Conv2d-367           [-1, 16, 16, 16]           2,304
          Conv2d-368           [-1, 16, 16, 16]           2,304
@12
     _DenseLayer-369          [-1, 320, 16, 16]               0
     _DenseLayer-370          [-1, 320, 16, 16]               0
     BatchNorm2d-371          [-1, 320, 16, 16]             640
            ReLU-372          [-1, 320, 16, 16]               0
     BatchNorm2d-373          [-1, 320, 16, 16]             640
LearnedGroupConv-374           [-1, 64, 16, 16]               0
            ReLU-375          [-1, 320, 16, 16]               0
     BatchNorm2d-376           [-1, 64, 16, 16]             128
LearnedGroupConv-377           [-1, 64, 16, 16]               0
            ReLU-378           [-1, 64, 16, 16]               0
     BatchNorm2d-379           [-1, 64, 16, 16]             128
          Conv2d-380           [-1, 16, 16, 16]           2,304
            ReLU-381           [-1, 64, 16, 16]               0
          Conv2d-382           [-1, 16, 16, 16]           2,304
@13
     _DenseLayer-383          [-1, 336, 16, 16]               0
     _DenseLayer-384          [-1, 336, 16, 16]               0
     BatchNorm2d-385          [-1, 336, 16, 16]             672
     BatchNorm2d-386          [-1, 336, 16, 16]             672
            ReLU-387          [-1, 336, 16, 16]               0
            ReLU-388          [-1, 336, 16, 16]               0
LearnedGroupConv-389           [-1, 64, 16, 16]               0
LearnedGroupConv-390           [-1, 64, 16, 16]               0
     BatchNorm2d-391           [-1, 64, 16, 16]             128
     BatchNorm2d-392           [-1, 64, 16, 16]             128
            ReLU-393           [-1, 64, 16, 16]               0
            ReLU-394           [-1, 64, 16, 16]               0
          Conv2d-395           [-1, 16, 16, 16]           2,304
          Conv2d-396           [-1, 16, 16, 16]           2,304
@14
     _DenseLayer-397          [-1, 352, 16, 16]               0
     _DenseLayer-398          [-1, 352, 16, 16]               0
       AvgPool2d-399            [-1, 352, 8, 8]               0
     _Transition-400            [-1, 352, 8, 8]               0
       AvgPool2d-401            [-1, 352, 8, 8]               0
     _Transition-402            [-1, 352, 8, 8]               0
@transition

     BatchNorm2d-403            [-1, 352, 8, 8]             704
     BatchNorm2d-404            [-1, 352, 8, 8]             704
            ReLU-405            [-1, 352, 8, 8]               0
            ReLU-406            [-1, 352, 8, 8]               0
LearnedGroupConv-407            [-1, 128, 8, 8]               0
LearnedGroupConv-408            [-1, 128, 8, 8]               0
     BatchNorm2d-409            [-1, 128, 8, 8]             256
     BatchNorm2d-410            [-1, 128, 8, 8]             256
            ReLU-411            [-1, 128, 8, 8]               0
            ReLU-412            [-1, 128, 8, 8]               0
          Conv2d-413             [-1, 32, 8, 8]           9,216
          Conv2d-414             [-1, 32, 8, 8]           9,216
@1
     _DenseLayer-415            [-1, 384, 8, 8]               0
     _DenseLayer-416            [-1, 384, 8, 8]               0
     BatchNorm2d-417            [-1, 384, 8, 8]             768
     BatchNorm2d-418            [-1, 384, 8, 8]             768
            ReLU-419            [-1, 384, 8, 8]               0
            ReLU-420            [-1, 384, 8, 8]               0
LearnedGroupConv-421            [-1, 128, 8, 8]               0
LearnedGroupConv-422            [-1, 128, 8, 8]               0
     BatchNorm2d-423            [-1, 128, 8, 8]             256
     BatchNorm2d-424            [-1, 128, 8, 8]             256
            ReLU-425            [-1, 128, 8, 8]               0
            ReLU-426            [-1, 128, 8, 8]               0
          Conv2d-427             [-1, 32, 8, 8]           9,216
          Conv2d-428             [-1, 32, 8, 8]           9,216
@2
     _DenseLayer-429            [-1, 416, 8, 8]               0
     _DenseLayer-430            [-1, 416, 8, 8]               0
     BatchNorm2d-431            [-1, 416, 8, 8]             832
     BatchNorm2d-432            [-1, 416, 8, 8]             832
            ReLU-433            [-1, 416, 8, 8]               0
            ReLU-434            [-1, 416, 8, 8]               0
LearnedGroupConv-435            [-1, 128, 8, 8]               0
LearnedGroupConv-436            [-1, 128, 8, 8]               0
     BatchNorm2d-437            [-1, 128, 8, 8]             256
     BatchNorm2d-438            [-1, 128, 8, 8]             256
            ReLU-439            [-1, 128, 8, 8]               0
            ReLU-440            [-1, 128, 8, 8]               0
          Conv2d-441             [-1, 32, 8, 8]           9,216
          Conv2d-442             [-1, 32, 8, 8]           9,216
@3
     _DenseLayer-443            [-1, 448, 8, 8]               0
     _DenseLayer-444            [-1, 448, 8, 8]               0
     BatchNorm2d-445            [-1, 448, 8, 8]             896
     BatchNorm2d-446            [-1, 448, 8, 8]             896
            ReLU-447            [-1, 448, 8, 8]               0
            ReLU-448            [-1, 448, 8, 8]               0
LearnedGroupConv-449            [-1, 128, 8, 8]               0
LearnedGroupConv-450            [-1, 128, 8, 8]               0
     BatchNorm2d-451            [-1, 128, 8, 8]             256
     BatchNorm2d-452            [-1, 128, 8, 8]             256
            ReLU-453            [-1, 128, 8, 8]               0
            ReLU-454            [-1, 128, 8, 8]               0
          Conv2d-455             [-1, 32, 8, 8]           9,216
          Conv2d-456             [-1, 32, 8, 8]           9,216
@4
     _DenseLayer-457            [-1, 480, 8, 8]               0
     _DenseLayer-458            [-1, 480, 8, 8]               0
     BatchNorm2d-459            [-1, 480, 8, 8]             960
     BatchNorm2d-460            [-1, 480, 8, 8]             960
            ReLU-461            [-1, 480, 8, 8]               0
            ReLU-462            [-1, 480, 8, 8]               0
LearnedGroupConv-463            [-1, 128, 8, 8]               0
LearnedGroupConv-464            [-1, 128, 8, 8]               0
     BatchNorm2d-465            [-1, 128, 8, 8]             256
     BatchNorm2d-466            [-1, 128, 8, 8]             256
            ReLU-467            [-1, 128, 8, 8]               0
            ReLU-468            [-1, 128, 8, 8]               0
          Conv2d-469             [-1, 32, 8, 8]           9,216
          Conv2d-470             [-1, 32, 8, 8]           9,216
@5
     _DenseLayer-471            [-1, 512, 8, 8]               0
     _DenseLayer-472            [-1, 512, 8, 8]               0
     BatchNorm2d-473            [-1, 512, 8, 8]           1,024
            ReLU-474            [-1, 512, 8, 8]               0
     BatchNorm2d-475            [-1, 512, 8, 8]           1,024
LearnedGroupConv-476            [-1, 128, 8, 8]               0
            ReLU-477            [-1, 512, 8, 8]               0
     BatchNorm2d-478            [-1, 128, 8, 8]             256
LearnedGroupConv-479            [-1, 128, 8, 8]               0
            ReLU-480            [-1, 128, 8, 8]               0
     BatchNorm2d-481            [-1, 128, 8, 8]             256
            ReLU-482            [-1, 128, 8, 8]               0
          Conv2d-483             [-1, 32, 8, 8]           9,216
          Conv2d-484             [-1, 32, 8, 8]           9,216
@6
     _DenseLayer-485            [-1, 544, 8, 8]               0
     _DenseLayer-486            [-1, 544, 8, 8]               0
     BatchNorm2d-487            [-1, 544, 8, 8]           1,088
     BatchNorm2d-488            [-1, 544, 8, 8]           1,088
            ReLU-489            [-1, 544, 8, 8]               0
            ReLU-490            [-1, 544, 8, 8]               0
LearnedGroupConv-491            [-1, 128, 8, 8]               0
LearnedGroupConv-492            [-1, 128, 8, 8]               0
     BatchNorm2d-493            [-1, 128, 8, 8]             256
     BatchNorm2d-494            [-1, 128, 8, 8]             256
            ReLU-495            [-1, 128, 8, 8]               0
            ReLU-496            [-1, 128, 8, 8]               0
          Conv2d-497             [-1, 32, 8, 8]           9,216
          Conv2d-498             [-1, 32, 8, 8]           9,216
@7
     _DenseLayer-499            [-1, 576, 8, 8]               0
     _DenseLayer-500            [-1, 576, 8, 8]               0
     BatchNorm2d-501            [-1, 576, 8, 8]           1,152
     BatchNorm2d-502            [-1, 576, 8, 8]           1,152
            ReLU-503            [-1, 576, 8, 8]               0
            ReLU-504            [-1, 576, 8, 8]               0
LearnedGroupConv-505            [-1, 128, 8, 8]               0
LearnedGroupConv-506            [-1, 128, 8, 8]               0
     BatchNorm2d-507            [-1, 128, 8, 8]             256
     BatchNorm2d-508            [-1, 128, 8, 8]             256
            ReLU-509            [-1, 128, 8, 8]               0
            ReLU-510            [-1, 128, 8, 8]               0
          Conv2d-511             [-1, 32, 8, 8]           9,216
          Conv2d-512             [-1, 32, 8, 8]           9,216
@8
     _DenseLayer-513            [-1, 608, 8, 8]               0
     _DenseLayer-514            [-1, 608, 8, 8]               0
     BatchNorm2d-515            [-1, 608, 8, 8]           1,216
     BatchNorm2d-516            [-1, 608, 8, 8]           1,216
            ReLU-517            [-1, 608, 8, 8]               0
            ReLU-518            [-1, 608, 8, 8]               0
LearnedGroupConv-519            [-1, 128, 8, 8]               0
     BatchNorm2d-520            [-1, 128, 8, 8]             256
LearnedGroupConv-521            [-1, 128, 8, 8]               0
     BatchNorm2d-522            [-1, 128, 8, 8]             256
            ReLU-523            [-1, 128, 8, 8]               0
            ReLU-524            [-1, 128, 8, 8]               0
          Conv2d-525             [-1, 32, 8, 8]           9,216
          Conv2d-526             [-1, 32, 8, 8]           9,216
@9
     _DenseLayer-527            [-1, 640, 8, 8]               0
     _DenseLayer-528            [-1, 640, 8, 8]               0
     BatchNorm2d-529            [-1, 640, 8, 8]           1,280
     BatchNorm2d-530            [-1, 640, 8, 8]           1,280
            ReLU-531            [-1, 640, 8, 8]               0
            ReLU-532            [-1, 640, 8, 8]               0
LearnedGroupConv-533            [-1, 128, 8, 8]               0
LearnedGroupConv-534            [-1, 128, 8, 8]               0
     BatchNorm2d-535            [-1, 128, 8, 8]             256
     BatchNorm2d-536            [-1, 128, 8, 8]             256
            ReLU-537            [-1, 128, 8, 8]               0
            ReLU-538            [-1, 128, 8, 8]               0
          Conv2d-539             [-1, 32, 8, 8]           9,216
          Conv2d-540             [-1, 32, 8, 8]           9,216
@10
     _DenseLayer-541            [-1, 672, 8, 8]               0
     _DenseLayer-542            [-1, 672, 8, 8]               0
     BatchNorm2d-543            [-1, 672, 8, 8]           1,344
     BatchNorm2d-544            [-1, 672, 8, 8]           1,344
            ReLU-545            [-1, 672, 8, 8]               0
            ReLU-546            [-1, 672, 8, 8]               0
LearnedGroupConv-547            [-1, 128, 8, 8]               0
LearnedGroupConv-548            [-1, 128, 8, 8]               0
     BatchNorm2d-549            [-1, 128, 8, 8]             256
     BatchNorm2d-550            [-1, 128, 8, 8]             256
            ReLU-551            [-1, 128, 8, 8]               0
            ReLU-552            [-1, 128, 8, 8]               0
          Conv2d-553             [-1, 32, 8, 8]           9,216
          Conv2d-554             [-1, 32, 8, 8]           9,216
@11
     _DenseLayer-555            [-1, 704, 8, 8]               0
     _DenseLayer-556            [-1, 704, 8, 8]               0
     BatchNorm2d-557            [-1, 704, 8, 8]           1,408
            ReLU-558            [-1, 704, 8, 8]               0
     BatchNorm2d-559            [-1, 704, 8, 8]           1,408
LearnedGroupConv-560            [-1, 128, 8, 8]               0
            ReLU-561            [-1, 704, 8, 8]               0
     BatchNorm2d-562            [-1, 128, 8, 8]             256
LearnedGroupConv-563            [-1, 128, 8, 8]               0
            ReLU-564            [-1, 128, 8, 8]               0
     BatchNorm2d-565            [-1, 128, 8, 8]             256
            ReLU-566            [-1, 128, 8, 8]               0
          Conv2d-567             [-1, 32, 8, 8]           9,216
          Conv2d-568             [-1, 32, 8, 8]           9,216
@12
     _DenseLayer-569            [-1, 736, 8, 8]               0
     _DenseLayer-570            [-1, 736, 8, 8]               0
     BatchNorm2d-571            [-1, 736, 8, 8]           1,472
     BatchNorm2d-572            [-1, 736, 8, 8]           1,472
            ReLU-573            [-1, 736, 8, 8]               0
            ReLU-574            [-1, 736, 8, 8]               0
LearnedGroupConv-575            [-1, 128, 8, 8]               0
LearnedGroupConv-576            [-1, 128, 8, 8]               0
     BatchNorm2d-577            [-1, 128, 8, 8]             256
     BatchNorm2d-578            [-1, 128, 8, 8]             256
            ReLU-579            [-1, 128, 8, 8]               0
            ReLU-580            [-1, 128, 8, 8]               0
          Conv2d-581             [-1, 32, 8, 8]           9,216
          Conv2d-582             [-1, 32, 8, 8]           9,216
@13
     _DenseLayer-583            [-1, 768, 8, 8]               0
     _DenseLayer-584            [-1, 768, 8, 8]               0
     BatchNorm2d-585            [-1, 768, 8, 8]           1,536
     BatchNorm2d-586            [-1, 768, 8, 8]           1,536
            ReLU-587            [-1, 768, 8, 8]               0
            ReLU-588            [-1, 768, 8, 8]               0
LearnedGroupConv-589            [-1, 128, 8, 8]               0
     BatchNorm2d-590            [-1, 128, 8, 8]             256
LearnedGroupConv-591            [-1, 128, 8, 8]               0
     BatchNorm2d-592            [-1, 128, 8, 8]             256
            ReLU-593            [-1, 128, 8, 8]               0
            ReLU-594            [-1, 128, 8, 8]               0
          Conv2d-595             [-1, 32, 8, 8]           9,216
          Conv2d-596             [-1, 32, 8, 8]           9,216
@14
     _DenseLayer-597            [-1, 800, 8, 8]               0
     BatchNorm2d-598            [-1, 800, 8, 8]           1,600
     _DenseLayer-599            [-1, 800, 8, 8]               0
     BatchNorm2d-600            [-1, 800, 8, 8]           1,600
            ReLU-601            [-1, 800, 8, 8]               0
       AvgPool2d-602            [-1, 800, 1, 1]               0
            ReLU-603            [-1, 800, 8, 8]               0
       AvgPool2d-604            [-1, 800, 1, 1]               0
@transition? optimization?       
          Linear-605                   [-1, 10]           8,010
          Linear-606                   [-1, 10]           8,010
     CondenseNet-607                   [-1, 10]               0
     CondenseNet-608                   [-1, 10]               0
================================================================
Total params: 419,476
Trainable params: 419,476
Non-trainable params: 0
----------------------------------------------------------------
Input size (MB): 0.01
Forward/backward pass size (MB): 152.04
Params size (MB): 1.60
Estimated Total Size (MB): 153.66
----------------------------------------------------------------